…
file may hold incorrect parameterization and should be fixed.
  warnings.warn(
/home/akane38/LLaVA/transformers/src/transformers/generation/configuration_utils.py:398: UserWarning: `do_sample` is set to `False`. However, `top_p` is set to `0.6` -- this flag is only used in sample-based generation modes. You should set `do_sample=True` or unset `top_p`. This was detected when initializing the generation config instance, which means the corresponding file may hold incorrect parameterization and should be fixed.
  warnings.warn(
LlavaLlamaForCausalLM(
  (model): LlavaLlamaModel(
    (embed_tokens): Embedding(32000, 4096, padding_idx=0)
    (layers): ModuleList(
      (0-31): 32 x LlamaDecoderLayer(
        (self_attn): LlamaFlashAttention2(
          (q_proj): Linear(in_features=4096, out_features=4096, bias=False)
          (k_proj): Linear(in_features=4096, out_features=4096, bias=False)
          (v_proj): Linear(in_features=4096, out_features=4096, bias=False)
          (o_proj): Linear(in_features=4096, out_features=4096, bias=False)
          (rotary_emb): LlamaRotaryEmbedding()
        )
        (mlp): LlamaMLP(
          (gate_proj): Linear(in_features=4096, out_features=11008, bias=False)
          (up_proj): Linear(in_features=4096, out_features=11008, bias=False)
          (down_proj): Linear(in_features=11008, out_features=4096, bias=False)
          (act_fn): SiLU()
        )
        (input_layernorm): LlamaRMSNorm()
        (post_attention_layernorm): LlamaRMSNorm()
      )
    )
    (norm): LlamaRMSNorm()
  )
  (lm_head): Linear(in_features=4096, out_features=32000, bias=False)
)
Traceback (most recent call last):
  File "/home/akane38/LLaVA/llava/train/multi_ve_train_mem.py", line 4, in <module>
    train(attn_implementation="flash_attention_2")
  File "/home/akane38/LLaVA/llava/train/multi_ve_train.py", line 914, in train
    if model_args.vision_tower is not None:
AttributeError: 'ModelArguments' object has no attribute 'vision_tower'. Did you mean: 'vision_towers'?
…
incorrect parameterization and should be fixed.
  warnings.warn(
/home/akane38/LLaVA/transformers/src/transformers/generation/configuration_utils.py:398: UserWarning: `do_sample` is set to `False`. However, `top_p` is set to `0.6` -- this flag is only used in sample-based generation modes. You should set `do_sample=True` or unset `top_p`. This was detected when initializing the generation config instance, which means the corresponding file may hold incorrect parameterization and should be fixed.
  warnings.warn(
MultiVELlavaLlamaForCausalLM(
  (model): MultiVELlavaLlamaModel(
    (embed_tokens): Embedding(32000, 4096, padding_idx=0)
    (layers): ModuleList(
      (0-31): 32 x LlamaDecoderLayer(
        (self_attn): LlamaFlashAttention2(
          (q_proj): Linear(in_features=4096, out_features=4096, bias=False)
          (k_proj): Linear(in_features=4096, out_features=4096, bias=False)
          (v_proj): Linear(in_features=4096, out_features=4096, bias=False)
          (o_proj): Linear(in_features=4096, out_features=4096, bias=False)
          (rotary_emb): LlamaRotaryEmbedding()
        )
        (mlp): LlamaMLP(
          (gate_proj): Linear(in_features=4096, out_features=11008, bias=False)
          (up_proj): Linear(in_features=4096, out_features=11008, bias=False)
          (down_proj): Linear(in_features=11008, out_features=4096, bias=False)
          (act_fn): SiLU()
        )
        (input_layernorm): LlamaRMSNorm()
        (post_attention_layernorm): LlamaRMSNorm()
      )
    )
    (norm): LlamaRMSNorm()
  )
  (lm_head): Linear(in_features=4096, out_features=32000, bias=False)
)
[2024-03-29 13:08:19,937] [INFO] [partition_parameters.py:348:__exit__] finished initializing model - num_params = 682, num_elems = 7.04B
[CLIPVisionTower(
  (vision_tower): CLIPVisionModel(
    (vision_model): CLIPVisionTransformer(
      (embeddings): CLIPVisionEmbeddings(
        (patch_embedding): Conv2d(3, 1024, kernel_size=(14, 14), stride=(14, 14), bias=False)
        (position_embedding): Embedding(577, 1024)
      )
      (pre_layrnorm): LayerNorm((1024,), eps=1e-05, elementwise_affine=True)
      (encoder): CLIPEncoder(
        (layers): ModuleList(
          (0-23): 24 x CLIPEncoderLayer(
            (self_attn): CLIPAttention(
              (k_proj): Linear(in_features=1024, out_features=1024, bias=True)
              (v_proj): Linear(in_features=1024, out_features=1024, bias=True)
              (q_proj): Linear(in_features=1024, out_features=1024, bias=True)
              (out_proj): Linear(in_features=1024, out_features=1024, bias=True)
            )
            (layer_norm1): LayerNorm((1024,), eps=1e-05, elementwise_affine=True)
            (mlp): CLIPMLP(
              (activation_fn): QuickGELUActivation()
              (fc1): Linear(in_features=1024, out_features=4096, bias=True)
              (fc2): Linear(in_features=4096, out_features=1024, bias=True)
            )
            (layer_norm2): LayerNorm((1024,), eps=1e-05, elementwise_affine=True)
          )
        )
      )
      (post_layernorm): LayerNorm((1024,), eps=1e-05, elementwise_affine=True)
    )
  )
)]
Traceback (most recent call last):
  File "/home/akane38/LLaVA/llava/train/multi_ve_train_mem.py", line 4, in <module>
    train(attn_implementation="flash_attention_2")
  File "/home/akane38/LLaVA/llava/train/multi_ve_train.py", line 916, in train
    model.get_model().initialize_vision_modules(
  File "/home/akane38/LLaVA/llava/model/llava_arch.py", line 69, in initialize_vision_modules
…
incorrect parameterization and should be fixed.
  warnings.warn(
/home/akane38/LLaVA/transformers/src/transformers/generation/configuration_utils.py:398: UserWarning: `do_sample` is set to `False`. However, `top_p` is set to `0.6` -- this flag is only used in sample-based generation modes. You should set `do_sample=True` or unset `top_p`. This was detected when initializing the generation config instance, which means the corresponding file may hold incorrect parameterization and should be fixed.
  warnings.warn(
MultiVELlavaLlamaForCausalLM(
  (model): MultiVELlavaLlamaModel(
    (embed_tokens): Embedding(32000, 4096, padding_idx=0)
    (layers): ModuleList(
      (0-31): 32 x LlamaDecoderLayer(
        (self_attn): LlamaFlashAttention2(
          (q_proj): Linear(in_features=4096, out_features=4096, bias=False)
          (k_proj): Linear(in_features=4096, out_features=4096, bias=False)
          (v_proj): Linear(in_features=4096, out_features=4096, bias=False)
          (o_proj): Linear(in_features=4096, out_features=4096, bias=False)
          (rotary_emb): LlamaRotaryEmbedding()
        )
        (mlp): LlamaMLP(
          (gate_proj): Linear(in_features=4096, out_features=11008, bias=False)
          (up_proj): Linear(in_features=4096, out_features=11008, bias=False)
          (down_proj): Linear(in_features=11008, out_features=4096, bias=False)
          (act_fn): SiLU()
        )
        (input_layernorm): LlamaRMSNorm()
        (post_attention_layernorm): LlamaRMSNorm()
      )
    )
    (norm): LlamaRMSNorm()
  )
  (lm_head): Linear(in_features=4096, out_features=32000, bias=False)
)
[2024-03-29 13:09:30,897] [INFO] [partition_parameters.py:348:__exit__] finished initializing model - num_params = 682, num_elems = 7.04B
[2024-03-29 13:09:35,418] [INFO] [partition_parameters.py:348:__exit__] finished initializing model - num_params = 1121, num_elems = 7.35B
[CLIPVisionTower(
  (vision_tower): CLIPVisionModel(
    (vision_model): CLIPVisionTransformer(
      (embeddings): CLIPVisionEmbeddings(
        (patch_embedding): Conv2d(3, 1024, kernel_size=(14, 14), stride=(14, 14), bias=False)
        (position_embedding): Embedding(577, 1024)
      )
      (pre_layrnorm): LayerNorm((1024,), eps=1e-05, elementwise_affine=True)
      (encoder): CLIPEncoder(
        (layers): ModuleList(
          (0-23): 24 x CLIPEncoderLayer(
            (self_attn): CLIPAttention(
              (k_proj): Linear(in_features=1024, out_features=1024, bias=True)
              (v_proj): Linear(in_features=1024, out_features=1024, bias=True)
              (q_proj): Linear(in_features=1024, out_features=1024, bias=True)
              (out_proj): Linear(in_features=1024, out_features=1024, bias=True)
            )
            (layer_norm1): LayerNorm((1024,), eps=1e-05, elementwise_affine=True)
            (mlp): CLIPMLP(
              (activation_fn): QuickGELUActivation()
              (fc1): Linear(in_features=1024, out_features=4096, bias=True)
              (fc2): Linear(in_features=4096, out_features=1024, bias=True)
            )
            (layer_norm2): LayerNorm((1024,), eps=1e-05, elementwise_affine=True)
          )
        )
      )
      (post_layernorm): LayerNorm((1024,), eps=1e-05, elementwise_affine=True)
    )
  )
), DINOVisionTower(
  (vision_tower): Dinov2Model(
    (embeddings): Dinov2Embeddings(
      (patch_embeddings): Dinov2PatchEmbeddings(
        (projection): Conv2d(3, 1024, kernel_size=(14, 14), stride=(14, 14))
      )
      (dropout): Dropout(p=0.0, inplace=False)
    )
    (encoder): Dinov2Encoder(
      (layer): ModuleList(
        (0-23): 24 x Dinov2Layer(
          (norm1): LayerNorm((1024,), eps=1e-06, elementwise_affine=True)
          (attention): Dinov2Attention(
            (attention): Dinov2SelfAttention(
              (query): Linear(in_features=1024, out_features=1024, bias=True)
              (key): Linear(in_features=1024, out_features=1024, bias=True)
              (value): Linear(in_features=1024, out_features=1024, bias=True)
              (dropout): Dropout(p=0.0, inplace=False)
            )
            (output): Dinov2SelfOutput(
              (dense): Linear(in_features=1024, out_features=1024, bias=True)
              (dropout): Dropout(p=0.0, inplace=False)
            )
          )
          (layer_scale1): Dinov2LayerScale()
          (drop_path1): Identity()
          (norm2): LayerNorm((1024,), eps=1e-06, elementwise_affine=True)
          (mlp): Dinov2MLP(
            (fc1): Linear(in_features=1024, out_features=4096, bias=True)
            (activation): GELUActivation()
            (fc2): Linear(in_features=4096, out_features=1024, bias=True)
          )
          (layer_scale2): Dinov2LayerScale()
          (drop_path2): Identity()
        )
      )
    )
    (layernorm): LayerNorm((1024,), eps=1e-06, elementwise_affine=True)
  )
)]
Traceback (most recent call last):
  File "/home/akane38/LLaVA/llava/train/multi_ve_train_mem.py", line 4, in <module>
    train(attn_implementation="flash_attention_2")
  File "/home/akane38/LLaVA/llava/train/multi_ve_train.py", line 916, in train
    model.get_model().initialize_vision_modules(
  File "/home/akane38/LLaVA/llava/model/llava_arch.py", line 69, in initialize_vision_modules
…
neration config instance, which means the corresponding file may hold incorrect parameterization and should be fixed.
  warnings.warn(
[2024-03-29 13:30:05,014] [INFO] [partition_parameters.py:348:__exit__] finished initializing model - num_params = 682, num_elems = 7.04B
[2024-03-29 13:30:06,033] [INFO] [partition_parameters.py:348:__exit__] finished initializing model - num_params = 1121, num_elems = 7.35B
ModuleList(
  (0): CLIPVisionTower(
    (vision_tower): CLIPVisionModel(
      (vision_model): CLIPVisionTransformer(
        (embeddings): CLIPVisionEmbeddings(
          (patch_embedding): Conv2d(3, 1024, kernel_size=(14, 14), stride=(14, 14), bias=False)
          (position_embedding): Embedding(577, 1024)
        )
        (pre_layrnorm): LayerNorm((1024,), eps=1e-05, elementwise_affine=True)
        (encoder): CLIPEncoder(
          (layers): ModuleList(
            (0-23): 24 x CLIPEncoderLayer(
              (self_attn): CLIPAttention(
                (k_proj): Linear(in_features=1024, out_features=1024, bias=True)
                (v_proj): Linear(in_features=1024, out_features=1024, bias=True)
                (q_proj): Linear(in_features=1024, out_features=1024, bias=True)
                (out_proj): Linear(in_features=1024, out_features=1024, bias=True)
              )
              (layer_norm1): LayerNorm((1024,), eps=1e-05, elementwise_affine=True)
              (mlp): CLIPMLP(
                (activation_fn): QuickGELUActivation()
                (fc1): Linear(in_features=1024, out_features=4096, bias=True)
                (fc2): Linear(in_features=4096, out_features=1024, bias=True)
              )
              (layer_norm2): LayerNorm((1024,), eps=1e-05, elementwise_affine=True)
            )
          )
        )
        (post_layernorm): LayerNorm((1024,), eps=1e-05, elementwise_affine=True)
      )
    )
  )
  (1): DINOVisionTower(
    (vision_tower): Dinov2Model(
      (embeddings): Dinov2Embeddings(
        (patch_embeddings): Dinov2PatchEmbeddings(
          (projection): Conv2d(3, 1024, kernel_size=(14, 14), stride=(14, 14))
        )
        (dropout): Dropout(p=0.0, inplace=False)
      )
      (encoder): Dinov2Encoder(
        (layer): ModuleList(
          (0-23): 24 x Dinov2Layer(
            (norm1): LayerNorm((1024,), eps=1e-06, elementwise_affine=True)
            (attention): Dinov2Attention(
              (attention): Dinov2SelfAttention(
                (query): Linear(in_features=1024, out_features=1024, bias=True)
                (key): Linear(in_features=1024, out_features=1024, bias=True)
                (value): Linear(in_features=1024, out_features=1024, bias=True)
                (dropout): Dropout(p=0.0, inplace=False)
              )
              (output): Dinov2SelfOutput(
                (dense): Linear(in_features=1024, out_features=1024, bias=True)
                (dropout): Dropout(p=0.0, inplace=False)
              )
            )
            (layer_scale1): Dinov2LayerScale()
            (drop_path1): Identity()
            (norm2): LayerNorm((1024,), eps=1e-06, elementwise_affine=True)
            (mlp): Dinov2MLP(
              (fc1): Linear(in_features=1024, out_features=4096, bias=True)
              (activation): GELUActivation()
              (fc2): Linear(in_features=4096, out_features=1024, bias=True)
            )
            (layer_scale2): Dinov2LayerScale()
            (drop_path2): Identity()
          )
        )
      )
      (layernorm): LayerNorm((1024,), eps=1e-06, elementwise_affine=True)
    )
  )
)
Traceback (most recent call last):
  File "/home/akane38/LLaVA/llava/train/multi_ve_train_mem.py", line 4, in <module>
    train(attn_implementation="flash_attention_2")
  File "/home/akane38/LLaVA/llava/train/multi_ve_train.py", line 914, in train
    model.get_model().initialize_vision_modules(
  File "/home/akane38/LLaVA/llava/model/llava_arch.py", line 104, in initialize_vision_modules
…
/home/akane38/LLaVA/transformers/src/transformers/generation/configuration_utils.py:398: UserWarning: `do_sample` is set to `False`. However, `top_p` is set to `0.6` -- this flag is only used in sample-based generation modes. You should set `do_sample=True` or unset `top_p`. This was detected when initializing the generation config instance, which means the corresponding file may hold incorrect parameterization and should be fixed.
  warnings.warn(
[2024-03-29 13:31:36,926] [INFO] [partition_parameters.py:348:__exit__] finished initializing model - num_params = 682, num_elems = 7.04B
[2024-03-29 13:31:38,160] [INFO] [partition_parameters.py:348:__exit__] finished initializing model - num_params = 1121, num_elems = 7.35B
MultiVELlavaLlamaForCausalLM(
  (model): MultiVELlavaLlamaModel(
    (embed_tokens): Embedding(32000, 4096, padding_idx=0)
    (layers): ModuleList(
      (0-31): 32 x LlamaDecoderLayer(
        (self_attn): LlamaFlashAttention2(
          (q_proj): Linear(in_features=4096, out_features=4096, bias=False)
          (k_proj): Linear(in_features=4096, out_features=4096, bias=False)
          (v_proj): Linear(in_features=4096, out_features=4096, bias=False)
          (o_proj): Linear(in_features=4096, out_features=4096, bias=False)
          (rotary_emb): LlamaRotaryEmbedding()
        )
        (mlp): LlamaMLP(
          (gate_proj): Linear(in_features=4096, out_features=11008, bias=False)
          (up_proj): Linear(in_features=4096, out_features=11008, bias=False)
          (down_proj): Linear(in_features=11008, out_features=4096, bias=False)
          (act_fn): SiLU()
        )
        (input_layernorm): LlamaRMSNorm()
        (post_attention_layernorm): LlamaRMSNorm()
      )
    )
    (norm): LlamaRMSNorm()
    (multiple_vision_towers): ModuleList(
      (0): CLIPVisionTower(
        (vision_tower): CLIPVisionModel(
          (vision_model): CLIPVisionTransformer(
            (embeddings): CLIPVisionEmbeddings(
              (patch_embedding): Conv2d(3, 1024, kernel_size=(14, 14), stride=(14, 14), bias=False)
              (position_embedding): Embedding(577, 1024)
            )
            (pre_layrnorm): LayerNorm((1024,), eps=1e-05, elementwise_affine=True)
            (encoder): CLIPEncoder(
              (layers): ModuleList(
                (0-23): 24 x CLIPEncoderLayer(
                  (self_attn): CLIPAttention(
                    (k_proj): Linear(in_features=1024, out_features=1024, bias=True)
                    (v_proj): Linear(in_features=1024, out_features=1024, bias=True)
                    (q_proj): Linear(in_features=1024, out_features=1024, bias=True)
                    (out_proj): Linear(in_features=1024, out_features=1024, bias=True)
                  )
                  (layer_norm1): LayerNorm((1024,), eps=1e-05, elementwise_affine=True)
                  (mlp): CLIPMLP(
                    (activation_fn): QuickGELUActivation()
                    (fc1): Linear(in_features=1024, out_features=4096, bias=True)
                    (fc2): Linear(in_features=4096, out_features=1024, bias=True)
                  )
                  (layer_norm2): LayerNorm((1024,), eps=1e-05, elementwise_affine=True)
                )
              )
            )
            (post_layernorm): LayerNorm((1024,), eps=1e-05, elementwise_affine=True)
          )
        )
      )
      (1): DINOVisionTower(
        (vision_tower): Dinov2Model(
          (embeddings): Dinov2Embeddings(
            (patch_embeddings): Dinov2PatchEmbeddings(
              (projection): Conv2d(3, 1024, kernel_size=(14, 14), stride=(14, 14))
            )
            (dropout): Dropout(p=0.0, inplace=False)
          )
          (encoder): Dinov2Encoder(
            (layer): ModuleList(
              (0-23): 24 x Dinov2Layer(
                (norm1): LayerNorm((1024,), eps=1e-06, elementwise_affine=True)
                (attention): Dinov2Attention(
                  (attention): Dinov2SelfAttention(
                    (query): Linear(in_features=1024, out_features=1024, bias=True)
                    (key): Linear(in_features=1024, out_features=1024, bias=True)
                    (value): Linear(in_features=1024, out_features=1024, bias=True)
                    (dropout): Dropout(p=0.0, inplace=False)
                  )
                  (output): Dinov2SelfOutput(
                    (dense): Linear(in_features=1024, out_features=1024, bias=True)
                    (dropout): Dropout(p=0.0, inplace=False)
                  )
                )
                (layer_scale1): Dinov2LayerScale()
                (drop_path1): Identity()
                (norm2): LayerNorm((1024,), eps=1e-06, elementwise_affine=True)
                (mlp): Dinov2MLP(
                  (fc1): Linear(in_features=1024, out_features=4096, bias=True)
                  (activation): GELUActivation()
                  (fc2): Linear(in_features=4096, out_features=1024, bias=True)
                )
                (layer_scale2): Dinov2LayerScale()
                (drop_path2): Identity()
              )
            )
          )
          (layernorm): LayerNorm((1024,), eps=1e-06, elementwise_affine=True)
        )
      )
    )
    (mm_projector): Sequential(
      (0): Linear(in_features=1024, out_features=4096, bias=True)
      (1): GELU(approximate='none')
      (2): Linear(in_features=4096, out_features=4096, bias=True)
    )
  )
  (lm_head): Linear(in_features=4096, out_features=32000, bias=False)
)
Traceback (most recent call last):
  File "/home/akane38/LLaVA/llava/train/multi_ve_train_mem.py", line 4, in <module>
    train(attn_implementation="flash_attention_2")
  File "/home/akane38/LLaVA/llava/train/multi_ve_train.py", line 921, in train
    print(model.get_multiple_vision_towers())
  File "/home/akane38/miniconda3/envs/llava/lib/python3.10/site-packages/torch/nn/modules/module.py", line 1695, in __getattr__
…
g storages directly.  To access UntypedStorage directly, use tensor.untyped_storage() instead of tensor.storage()
  return self.fget.__get__(instance, owner)()

Loading checkpoint shards:  50%|█████     | 1/2 [00:04<00:04,  4.57s/it]
Loading checkpoint shards: 100%|██████████| 2/2 [00:06<00:00,  2.81s/it]
Loading checkpoint shards: 100%|██████████| 2/2 [00:06<00:00,  3.08s/it]
[2024-03-31 18:05:37,869] [INFO] [partition_parameters.py:348:__exit__] finished initializing model - num_params = 682, num_elems = 7.04B
MultiVELlavaLlamaForCausalLM(
  (model): MultiVELlavaLlamaModel(
    (embed_tokens): Embedding(32000, 4096, padding_idx=0)
    (layers): ModuleList(
      (0-31): 32 x LlamaDecoderLayer(
        (self_attn): LlamaFlashAttention2(
          (q_proj): Linear(in_features=4096, out_features=4096, bias=False)
          (k_proj): Linear(in_features=4096, out_features=4096, bias=False)
          (v_proj): Linear(in_features=4096, out_features=4096, bias=False)
          (o_proj): Linear(in_features=4096, out_features=4096, bias=False)
          (rotary_emb): LlamaRotaryEmbedding()
        )
        (mlp): LlamaMLP(
          (gate_proj): Linear(in_features=4096, out_features=11008, bias=False)
          (up_proj): Linear(in_features=4096, out_features=11008, bias=False)
          (down_proj): Linear(in_features=11008, out_features=4096, bias=False)
          (act_fn): SiLU()
        )
        (input_layernorm): LlamaRMSNorm()
        (post_attention_layernorm): LlamaRMSNorm()
      )
    )
    (norm): LlamaRMSNorm()
    (multiple_vision_towers): ModuleList(
      (0): CLIPVisionTower(
        (vision_tower): CLIPVisionModel(
          (vision_model): CLIPVisionTransformer(
            (embeddings): CLIPVisionEmbeddings(
              (patch_embedding): Conv2d(3, 1024, kernel_size=(14, 14), stride=(14, 14), bias=False)
              (position_embedding): Embedding(577, 1024)
            )
            (pre_layrnorm): LayerNorm((1024,), eps=1e-05, elementwise_affine=True)
            (encoder): CLIPEncoder(
              (layers): ModuleList(
                (0-23): 24 x CLIPEncoderLayer(
                  (self_attn): CLIPAttention(
                    (k_proj): Linear(in_features=1024, out_features=1024, bias=True)
                    (v_proj): Linear(in_features=1024, out_features=1024, bias=True)
                    (q_proj): Linear(in_features=1024, out_features=1024, bias=True)
                    (out_proj): Linear(in_features=1024, out_features=1024, bias=True)
                  )
                  (layer_norm1): LayerNorm((1024,), eps=1e-05, elementwise_affine=True)
                  (mlp): CLIPMLP(
                    (activation_fn): QuickGELUActivation()
                    (fc1): Linear(in_features=1024, out_features=4096, bias=True)
                    (fc2): Linear(in_features=4096, out_features=1024, bias=True)
                  )
                  (layer_norm2): LayerNorm((1024,), eps=1e-05, elementwise_affine=True)
                )
              )
            )
            (post_layernorm): LayerNorm((1024,), eps=1e-05, elementwise_affine=True)
          )
        )
      )
    )
    (mm_projector): Sequential(
      (0): Linear(in_features=1024, out_features=4096, bias=True)
      (1): GELU(approximate='none')
      (2): Linear(in_features=4096, out_features=4096, bias=True)
    )
  )
  (lm_head): Linear(in_features=4096, out_features=32000, bias=False)
)
trainable=20979712
frozen=0
Formatting inputs...Skip in lazy mode
/home/akane38/LLaVA/transformers/src/transformers/deepspeed.py:23: FutureWarning: transformers.deepspeed module is deprecated and will be removed in a future version. Please import deepspeed modules directly from transformers.integrations
  warnings.warn(
Parameter Offload: Total persistent parameters: 599040 in 312 params
…
Loading checkpoint shards:  50%|█████     | 1/2 [00:06<00:06,  6.32s/it]
Loading checkpoint shards: 100%|██████████| 2/2 [00:08<00:00,  3.82s/it]
Loading checkpoint shards: 100%|██████████| 2/2 [00:08<00:00,  4.19s/it]

Loading checkpoint shards:  50%|█████     | 1/2 [00:09<00:09,  9.99s/it]
Loading checkpoint shards: 100%|██████████| 2/2 [00:11<00:00,  5.11s/it]
Loading checkpoint shards: 100%|██████████| 2/2 [00:11<00:00,  5.84s/it]
[2024-03-31 18:09:50,958] [INFO] [partition_parameters.py:348:__exit__] finished initializing model - num_params = 682, num_elems = 7.04B
MultiVELlavaLlamaForCausalLM(
  (model): MultiVELlavaLlamaModel(
    (embed_tokens): Embedding(32000, 4096, padding_idx=0)
    (layers): ModuleList(
      (0-31): 32 x LlamaDecoderLayer(
        (self_attn): LlamaFlashAttention2(
          (q_proj): Linear(in_features=4096, out_features=4096, bias=False)
          (k_proj): Linear(in_features=4096, out_features=4096, bias=False)
          (v_proj): Linear(in_features=4096, out_features=4096, bias=False)
          (o_proj): Linear(in_features=4096, out_features=4096, bias=False)
          (rotary_emb): LlamaRotaryEmbedding()
        )
        (mlp): LlamaMLP(
          (gate_proj): Linear(in_features=4096, out_features=11008, bias=False)
          (up_proj): Linear(in_features=4096, out_features=11008, bias=False)
          (down_proj): Linear(in_features=11008, out_features=4096, bias=False)
          (act_fn): SiLU()
        )
        (input_layernorm): LlamaRMSNorm()
        (post_attention_layernorm): LlamaRMSNorm()
      )
    )
    (norm): LlamaRMSNorm()
    (multiple_vision_towers): ModuleList(
      (0): CLIPVisionTower(
        (vision_tower): CLIPVisionModel(
          (vision_model): CLIPVisionTransformer(
            (embeddings): CLIPVisionEmbeddings(
              (patch_embedding): Conv2d(3, 1024, kernel_size=(14, 14), stride=(14, 14), bias=False)
              (position_embedding): Embedding(577, 1024)
            )
            (pre_layrnorm): LayerNorm((1024,), eps=1e-05, elementwise_affine=True)
            (encoder): CLIPEncoder(
              (layers): ModuleList(
                (0-23): 24 x CLIPEncoderLayer(
                  (self_attn): CLIPAttention(
                    (k_proj): Linear(in_features=1024, out_features=1024, bias=True)
                    (v_proj): Linear(in_features=1024, out_features=1024, bias=True)
                    (q_proj): Linear(in_features=1024, out_features=1024, bias=True)
                    (out_proj): Linear(in_features=1024, out_features=1024, bias=True)
                  )
                  (layer_norm1): LayerNorm((1024,), eps=1e-05, elementwise_affine=True)
                  (mlp): CLIPMLP(
                    (activation_fn): QuickGELUActivation()
                    (fc1): Linear(in_features=1024, out_features=4096, bias=True)
                    (fc2): Linear(in_features=4096, out_features=1024, bias=True)
                  )
                  (layer_norm2): LayerNorm((1024,), eps=1e-05, elementwise_affine=True)
                )
              )
            )
            (post_layernorm): LayerNorm((1024,), eps=1e-05, elementwise_affine=True)
          )
        )
      )
    )
    (mm_projector): Sequential(
      (0): Linear(in_features=1024, out_features=4096, bias=True)
      (1): GELU(approximate='none')
      (2): Linear(in_features=4096, out_features=4096, bias=True)
    )
  )
  (lm_head): Linear(in_features=4096, out_features=32000, bias=False)
)
trainable=20979712
frozen=0
MultiVELlavaLlamaForCausalLM(
  (model): MultiVELlavaLlamaModel(
    (embed_tokens): Embedding(32000, 4096, padding_idx=0)
    (layers): ModuleList(
      (0-31): 32 x LlamaDecoderLayer(
        (self_attn): LlamaFlashAttention2(
          (q_proj): Linear(in_features=4096, out_features=4096, bias=False)
          (k_proj): Linear(in_features=4096, out_features=4096, bias=False)
          (v_proj): Linear(in_features=4096, out_features=4096, bias=False)
          (o_proj): Linear(in_features=4096, out_features=4096, bias=False)
          (rotary_emb): LlamaRotaryEmbedding()
        )
        (mlp): LlamaMLP(
          (gate_proj): Linear(in_features=4096, out_features=11008, bias=False)
          (up_proj): Linear(in_features=4096, out_features=11008, bias=False)
          (down_proj): Linear(in_features=11008, out_features=4096, bias=False)
          (act_fn): SiLU()
        )
        (input_layernorm): LlamaRMSNorm()
        (post_attention_layernorm): LlamaRMSNorm()
      )
    )
    (norm): LlamaRMSNorm()
    (multiple_vision_towers): ModuleList(
      (0): CLIPVisionTower(
        (vision_tower): CLIPVisionModel(
          (vision_model): CLIPVisionTransformer(
            (embeddings): CLIPVisionEmbeddings(
              (patch_embedding): Conv2d(3, 1024, kernel_size=(14, 14), stride=(14, 14), bias=False)
              (position_embedding): Embedding(577, 1024)
            )
            (pre_layrnorm): LayerNorm((1024,), eps=1e-05, elementwise_affine=True)
            (encoder): CLIPEncoder(
              (layers): ModuleList(
                (0-23): 24 x CLIPEncoderLayer(
                  (self_attn): CLIPAttention(
                    (k_proj): Linear(in_features=1024, out_features=1024, bias=True)
                    (v_proj): Linear(in_features=1024, out_features=1024, bias=True)
                    (q_proj): Linear(in_features=1024, out_features=1024, bias=True)
                    (out_proj): Linear(in_features=1024, out_features=1024, bias=True)
                  )
                  (layer_norm1): LayerNorm((1024,), eps=1e-05, elementwise_affine=True)
                  (mlp): CLIPMLP(
                    (activation_fn): QuickGELUActivation()
                    (fc1): Linear(in_features=1024, out_features=4096, bias=True)
                    (fc2): Linear(in_features=4096, out_features=1024, bias=True)
                  )
                  (layer_norm2): LayerNorm((1024,), eps=1e-05, elementwise_affine=True)
                )
              )
            )
            (post_layernorm): LayerNorm((1024,), eps=1e-05, elementwise_affine=True)
          )
        )
      )
    )
    (mm_projector): Sequential(
      (0): Linear(in_features=1024, out_features=4096, bias=True)
      (1): GELU(approximate='none')
      (2): Linear(in_features=4096, out_features=4096, bias=True)
    )
  )
  (lm_head): Linear(in_features=4096, out_features=32000, bias=False)
)
trainable=20979712
frozen=0
Formatting inputs...Skip in lazy mode
/home/akane38/LLaVA/transformers/src/transformers/deepspeed.py:23: FutureWarning: transformers.deepspeed module is deprecated and will be removed in a future version. Please import deepspeed modules directly from transformers.integrations
  warnings.warn(
/home/akane38/LLaVA/transformers/src/transformers/deepspeed.py:23: FutureWarning: transformers.deepspeed module is deprecated and will be removed in a future version. Please import deepspeed modules directly from transformers.integrations
…
Loading checkpoint shards: 100%|██████████| 2/2 [00:09<00:00,  4.50s/it]

Loading checkpoint shards:  50%|█████     | 1/2 [00:10<00:10, 10.43s/it]
Loading checkpoint shards: 100%|██████████| 2/2 [00:12<00:00,  5.27s/it]
Loading checkpoint shards: 100%|██████████| 2/2 [00:12<00:00,  6.04s/it]
[2024-03-31 18:18:31,132] [INFO] [partition_parameters.py:348:__exit__] finished initializing model - num_params = 682, num_elems = 7.04B
[2024-03-31 18:18:34,561] [INFO] [partition_parameters.py:348:__exit__] finished initializing model - num_params = 1121, num_elems = 7.35B
MultiVELlavaLlamaForCausalLM(
  (model): MultiVELlavaLlamaModel(
    (embed_tokens): Embedding(32000, 4096, padding_idx=0)
    (layers): ModuleList(
      (0-31): 32 x LlamaDecoderLayer(
        (self_attn): LlamaFlashAttention2(
          (q_proj): Linear(in_features=4096, out_features=4096, bias=False)
          (k_proj): Linear(in_features=4096, out_features=4096, bias=False)
          (v_proj): Linear(in_features=4096, out_features=4096, bias=False)
          (o_proj): Linear(in_features=4096, out_features=4096, bias=False)
          (rotary_emb): LlamaRotaryEmbedding()
        )
        (mlp): LlamaMLP(
          (gate_proj): Linear(in_features=4096, out_features=11008, bias=False)
          (up_proj): Linear(in_features=4096, out_features=11008, bias=False)
          (down_proj): Linear(in_features=11008, out_features=4096, bias=False)
          (act_fn): SiLU()
        )
        (input_layernorm): LlamaRMSNorm()
        (post_attention_layernorm): LlamaRMSNorm()
      )
    )
    (norm): LlamaRMSNorm()
    (multiple_vision_towers): ModuleList(
      (0): CLIPVisionTower(
        (vision_tower): CLIPVisionModel(
          (vision_model): CLIPVisionTransformer(
            (embeddings): CLIPVisionEmbeddings(
              (patch_embedding): Conv2d(3, 1024, kernel_size=(14, 14), stride=(14, 14), bias=False)
              (position_embedding): Embedding(577, 1024)
            )
            (pre_layrnorm): LayerNorm((1024,), eps=1e-05, elementwise_affine=True)
            (encoder): CLIPEncoder(
              (layers): ModuleList(
                (0-23): 24 x CLIPEncoderLayer(
                  (self_attn): CLIPAttention(
                    (k_proj): Linear(in_features=1024, out_features=1024, bias=True)
                    (v_proj): Linear(in_features=1024, out_features=1024, bias=True)
                    (q_proj): Linear(in_features=1024, out_features=1024, bias=True)
                    (out_proj): Linear(in_features=1024, out_features=1024, bias=True)
                  )
                  (layer_norm1): LayerNorm((1024,), eps=1e-05, elementwise_affine=True)
                  (mlp): CLIPMLP(
                    (activation_fn): QuickGELUActivation()
                    (fc1): Linear(in_features=1024, out_features=4096, bias=True)
                    (fc2): Linear(in_features=4096, out_features=1024, bias=True)
                  )
                  (layer_norm2): LayerNorm((1024,), eps=1e-05, elementwise_affine=True)
                )
              )
            )
            (post_layernorm): LayerNorm((1024,), eps=1e-05, elementwise_affine=True)
          )
        )
      )
      (1): DINOVisionTower(
        (vision_tower): Dinov2Model(
          (embeddings): Dinov2Embeddings(
            (patch_embeddings): Dinov2PatchEmbeddings(
              (projection): Conv2d(3, 1024, kernel_size=(14, 14), stride=(14, 14))
            )
            (dropout): Dropout(p=0.0, inplace=False)
          )
          (encoder): Dinov2Encoder(
            (layer): ModuleList(
              (0-23): 24 x Dinov2Layer(
                (norm1): LayerNorm((1024,), eps=1e-06, elementwise_affine=True)
                (attention): Dinov2Attention(
                  (attention): Dinov2SelfAttention(
                    (query): Linear(in_features=1024, out_features=1024, bias=True)
                    (key): Linear(in_features=1024, out_features=1024, bias=True)
                    (value): Linear(in_features=1024, out_features=1024, bias=True)
                    (dropout): Dropout(p=0.0, inplace=False)
                  )
                  (output): Dinov2SelfOutput(
                    (dense): Linear(in_features=1024, out_features=1024, bias=True)
                    (dropout): Dropout(p=0.0, inplace=False)
                  )
                )
                (layer_scale1): Dinov2LayerScale()
                (drop_path1): Identity()
                (norm2): LayerNorm((1024,), eps=1e-06, elementwise_affine=True)
                (mlp): Dinov2MLP(
                  (fc1): Linear(in_features=1024, out_features=4096, bias=True)
                  (activation): GELUActivation()
                  (fc2): Linear(in_features=4096, out_features=1024, bias=True)
                )
                (layer_scale2): Dinov2LayerScale()
                (drop_path2): Identity()
              )
            )
          )
          (layernorm): LayerNorm((1024,), eps=1e-06, elementwise_affine=True)
        )
      )
    )
    (mm_projector): Sequential(
      (0): Linear(in_features=1024, out_features=4096, bias=True)
      (1): GELU(approximate='none')
      (2): Linear(in_features=4096, out_features=4096, bias=True)
    )
  )
  (lm_head): Linear(in_features=4096, out_features=32000, bias=False)
)
trainable=20979712
frozen=0
MultiVELlavaLlamaForCausalLM(
  (model): MultiVELlavaLlamaModel(
    (embed_tokens): Embedding(32000, 4096, padding_idx=0)
    (layers): ModuleList(
      (0-31): 32 x LlamaDecoderLayer(
        (self_attn): LlamaFlashAttention2(
          (q_proj): Linear(in_features=4096, out_features=4096, bias=False)
          (k_proj): Linear(in_features=4096, out_features=4096, bias=False)
          (v_proj): Linear(in_features=4096, out_features=4096, bias=False)
          (o_proj): Linear(in_features=4096, out_features=4096, bias=False)
          (rotary_emb): LlamaRotaryEmbedding()
        )
        (mlp): LlamaMLP(
          (gate_proj): Linear(in_features=4096, out_features=11008, bias=False)
          (up_proj): Linear(in_features=4096, out_features=11008, bias=False)
          (down_proj): Linear(in_features=11008, out_features=4096, bias=False)
          (act_fn): SiLU()
        )
        (input_layernorm): LlamaRMSNorm()
        (post_attention_layernorm): LlamaRMSNorm()
      )
    )
    (norm): LlamaRMSNorm()
    (multiple_vision_towers): ModuleList(
      (0): CLIPVisionTower(
        (vision_tower): CLIPVisionModel(
          (vision_model): CLIPVisionTransformer(
            (embeddings): CLIPVisionEmbeddings(
              (patch_embedding): Conv2d(3, 1024, kernel_size=(14, 14), stride=(14, 14), bias=False)
              (position_embedding): Embedding(577, 1024)
            )
            (pre_layrnorm): LayerNorm((1024,), eps=1e-05, elementwise_affine=True)
            (encoder): CLIPEncoder(
              (layers): ModuleList(
                (0-23): 24 x CLIPEncoderLayer(
                  (self_attn): CLIPAttention(
                    (k_proj): Linear(in_features=1024, out_features=1024, bias=True)
                    (v_proj): Linear(in_features=1024, out_features=1024, bias=True)
                    (q_proj): Linear(in_features=1024, out_features=1024, bias=True)
                    (out_proj): Linear(in_features=1024, out_features=1024, bias=True)
                  )
                  (layer_norm1): LayerNorm((1024,), eps=1e-05, elementwise_affine=True)
                  (mlp): CLIPMLP(
                    (activation_fn): QuickGELUActivation()
                    (fc1): Linear(in_features=1024, out_features=4096, bias=True)
                    (fc2): Linear(in_features=4096, out_features=1024, bias=True)
                  )
                  (layer_norm2): LayerNorm((1024,), eps=1e-05, elementwise_affine=True)
                )
              )
            )
            (post_layernorm): LayerNorm((1024,), eps=1e-05, elementwise_affine=True)
          )
        )
      )
      (1): DINOVisionTower(
        (vision_tower): Dinov2Model(
          (embeddings): Dinov2Embeddings(
            (patch_embeddings): Dinov2PatchEmbeddings(
              (projection): Conv2d(3, 1024, kernel_size=(14, 14), stride=(14, 14))
            )
            (dropout): Dropout(p=0.0, inplace=False)
          )
          (encoder): Dinov2Encoder(
            (layer): ModuleList(
              (0-23): 24 x Dinov2Layer(
                (norm1): LayerNorm((1024,), eps=1e-06, elementwise_affine=True)
                (attention): Dinov2Attention(
                  (attention): Dinov2SelfAttention(
                    (query): Linear(in_features=1024, out_features=1024, bias=True)
                    (key): Linear(in_features=1024, out_features=1024, bias=True)
                    (value): Linear(in_features=1024, out_features=1024, bias=True)
                    (dropout): Dropout(p=0.0, inplace=False)
                  )
                  (output): Dinov2SelfOutput(
                    (dense): Linear(in_features=1024, out_features=1024, bias=True)
                    (dropout): Dropout(p=0.0, inplace=False)
                  )
                )
                (layer_scale1): Dinov2LayerScale()
                (drop_path1): Identity()
                (norm2): LayerNorm((1024,), eps=1e-06, elementwise_affine=True)
                (mlp): Dinov2MLP(
                  (fc1): Linear(in_features=1024, out_features=4096, bias=True)
                  (activation): GELUActivation()
                  (fc2): Linear(in_features=4096, out_features=1024, bias=True)
                )
                (layer_scale2): Dinov2LayerScale()
                (drop_path2): Identity()
              )
            )
          )
          (layernorm): LayerNorm((1024,), eps=1e-06, elementwise_affine=True)
        )
      )
    )
    (mm_projector): Sequential(
      (0): Linear(in_features=1024, out_features=4096, bias=True)
      (1): GELU(approximate='none')
      (2): Linear(in_features=4096, out_features=4096, bias=True)
    )
  )
  (lm_head): Linear(in_features=4096, out_features=32000, bias=False)
)
trainable=20979712
frozen=0
Formatting inputs...Skip in lazy mode
/home/akane38/LLaVA/transformers/src/transformers/deepspeed.py:23: FutureWarning: transformers.deepspeed module is deprecated and will be removed in a future version. Please import deepspeed modules directly from transformers.integrations
  warnings.warn(
/home/akane38/LLaVA/transformers/src/transformers/deepspeed.py:23: FutureWarning: transformers.deepspeed module is deprecated and will be removed in a future version. Please import deepspeed modules directly from transformers.integrations
…
Loading checkpoint shards:  50%|█████     | 1/2 [00:06<00:06,  6.78s/it]Loading checkpoint shards: 100%|██████████| 2/2 [00:09<00:00,  4.61s/it]Loading checkpoint shards: 100%|██████████| 2/2 [00:09<00:00,  4.94s/it]
Loading checkpoint shards:  50%|█████     | 1/2 [00:10<00:10, 10.65s/it]Loading checkpoint shards: 100%|██████████| 2/2 [00:13<00:00,  6.22s/it]Loading checkpoint shards: 100%|██████████| 2/2 [00:13<00:00,  6.89s/it]
[2024-04-01 02:26:12,972] [INFO] [partition_parameters.py:348:__exit__] finished initializing model - num_params = 682, num_elems = 7.04B
[2024-04-01 02:26:20,029] [INFO] [partition_parameters.py:348:__exit__] finished initializing model - num_params = 1121, num_elems = 7.35B
MultiVELlavaLlamaForCausalLM(
  (model): MultiVELlavaLlamaModel(
    (embed_tokens): Embedding(32000, 4096, padding_idx=0)
    (layers): ModuleList(
      (0-31): 32 x LlamaDecoderLayer(
        (self_attn): LlamaFlashAttention2(
          (q_proj): Linear(in_features=4096, out_features=4096, bias=False)
          (k_proj): Linear(in_features=4096, out_features=4096, bias=False)
          (v_proj): Linear(in_features=4096, out_features=4096, bias=False)
          (o_proj): Linear(in_features=4096, out_features=4096, bias=False)
          (rotary_emb): LlamaRotaryEmbedding()
        )
        (mlp): LlamaMLP(
          (gate_proj): Linear(in_features=4096, out_features=11008, bias=False)
          (up_proj): Linear(in_features=4096, out_features=11008, bias=False)
          (down_proj): Linear(in_features=11008, out_features=4096, bias=False)
          (act_fn): SiLU()
        )
        (input_layernorm): LlamaRMSNorm()
        (post_attention_layernorm): LlamaRMSNorm()
      )
    )
    (norm): LlamaRMSNorm()
    (multiple_vision_towers): ModuleList(
      (0): CLIPVisionTower(
        (vision_tower): CLIPVisionModel(
          (vision_model): CLIPVisionTransformer(
            (embeddings): CLIPVisionEmbeddings(
              (patch_embedding): Conv2d(3, 1024, kernel_size=(14, 14), stride=(14, 14), bias=False)
              (position_embedding): Embedding(577, 1024)
            )
            (pre_layrnorm): LayerNorm((1024,), eps=1e-05, elementwise_affine=True)
            (encoder): CLIPEncoder(
              (layers): ModuleList(
                (0-23): 24 x CLIPEncoderLayer(
                  (self_attn): CLIPAttention(
                    (k_proj): Linear(in_features=1024, out_features=1024, bias=True)
                    (v_proj): Linear(in_features=1024, out_features=1024, bias=True)
                    (q_proj): Linear(in_features=1024, out_features=1024, bias=True)
                    (out_proj): Linear(in_features=1024, out_features=1024, bias=True)
                  )
                  (layer_norm1): LayerNorm((1024,), eps=1e-05, elementwise_affine=True)
                  (mlp): CLIPMLP(
                    (activation_fn): QuickGELUActivation()
                    (fc1): Linear(in_features=1024, out_features=4096, bias=True)
                    (fc2): Linear(in_features=4096, out_features=1024, bias=True)
                  )
                  (layer_norm2): LayerNorm((1024,), eps=1e-05, elementwise_affine=True)
                )
              )
            )
            (post_layernorm): LayerNorm((1024,), eps=1e-05, elementwise_affine=True)
          )
        )
      )
      (1): DINOVisionTower(
        (vision_tower): Dinov2Model(
          (embeddings): Dinov2Embeddings(
            (patch_embeddings): Dinov2PatchEmbeddings(
              (projection): Conv2d(3, 1024, kernel_size=(14, 14), stride=(14, 14))
            )
            (dropout): Dropout(p=0.0, inplace=False)
          )
          (encoder): Dinov2Encoder(
            (layer): ModuleList(
              (0-23): 24 x Dinov2Layer(
                (norm1): LayerNorm((1024,), eps=1e-06, elementwise_affine=True)
                (attention): Dinov2Attention(
                  (attention): Dinov2SelfAttention(
                    (query): Linear(in_features=1024, out_features=1024, bias=True)
                    (key): Linear(in_features=1024, out_features=1024, bias=True)
                    (value): Linear(in_features=1024, out_features=1024, bias=True)
                    (dropout): Dropout(p=0.0, inplace=False)
                  )
                  (output): Dinov2SelfOutput(
                    (dense): Linear(in_features=1024, out_features=1024, bias=True)
                    (dropout): Dropout(p=0.0, inplace=False)
                  )
                )
                (layer_scale1): Dinov2LayerScale()
                (drop_path1): Identity()
                (norm2): LayerNorm((1024,), eps=1e-06, elementwise_affine=True)
                (mlp): Dinov2MLP(
                  (fc1): Linear(in_features=1024, out_features=4096, bias=True)
                  (activation): GELUActivation()
                  (fc2): Linear(in_features=4096, out_features=1024, bias=True)
                )
                (layer_scale2): Dinov2LayerScale()
                (drop_path2): Identity()
              )
            )
          )
          (layernorm): LayerNorm((1024,), eps=1e-06, elementwise_affine=True)
        )
      )
    )
    (resampler): Resampler(
      (kv_proj): Identity()
      (attn): MultiheadAttention(
        (out_proj): NonDynamicallyQuantizableLinear(in_features=1024, out_features=1024, bias=True)
      )
      (ln_q): LayerNorm((1024,), eps=1e-06, elementwise_affine=True)
      (ln_kv): LayerNorm((1024,), eps=1e-06, elementwise_affine=True)
      (ln_post): LayerNorm((1024,), eps=1e-06, elementwise_affine=True)
    )
    (mm_projector): Sequential(
      (0): Linear(in_features=1024, out_features=4096, bias=True)
      (1): GELU(approximate='none')
      (2): Linear(in_features=4096, out_features=4096, bias=True)
    )
  )
  (lm_head): Linear(in_features=4096, out_features=32000, bias=False)
)
trainable=26822656
frozen=589824
MultiVELlavaLlamaForCausalLM(
  (model): MultiVELlavaLlamaModel(
    (embed_tokens): Embedding(32000, 4096, padding_idx=0)
    (layers): ModuleList(
      (0-31): 32 x LlamaDecoderLayer(
        (self_attn): LlamaFlashAttention2(
          (q_proj): Linear(in_features=4096, out_features=4096, bias=False)
          (k_proj): Linear(in_features=4096, out_features=4096, bias=False)
          (v_proj): Linear(in_features=4096, out_features=4096, bias=False)
          (o_proj): Linear(in_features=4096, out_features=4096, bias=False)
          (rotary_emb): LlamaRotaryEmbedding()
        )
        (mlp): LlamaMLP(
          (gate_proj): Linear(in_features=4096, out_features=11008, bias=False)
          (up_proj): Linear(in_features=4096, out_features=11008, bias=False)
          (down_proj): Linear(in_features=11008, out_features=4096, bias=False)
          (act_fn): SiLU()
        )
        (input_layernorm): LlamaRMSNorm()
        (post_attention_layernorm): LlamaRMSNorm()
      )
    )
    (norm): LlamaRMSNorm()
    (multiple_vision_towers): ModuleList(
      (0): CLIPVisionTower(
        (vision_tower): CLIPVisionModel(
          (vision_model): CLIPVisionTransformer(
            (embeddings): CLIPVisionEmbeddings(
              (patch_embedding): Conv2d(3, 1024, kernel_size=(14, 14), stride=(14, 14), bias=False)
              (position_embedding): Embedding(577, 1024)
            )
            (pre_layrnorm): LayerNorm((1024,), eps=1e-05, elementwise_affine=True)
            (encoder): CLIPEncoder(
              (layers): ModuleList(
                (0-23): 24 x CLIPEncoderLayer(
                  (self_attn): CLIPAttention(
                    (k_proj): Linear(in_features=1024, out_features=1024, bias=True)
                    (v_proj): Linear(in_features=1024, out_features=1024, bias=True)
                    (q_proj): Linear(in_features=1024, out_features=1024, bias=True)
                    (out_proj): Linear(in_features=1024, out_features=1024, bias=True)
                  )
                  (layer_norm1): LayerNorm((1024,), eps=1e-05, elementwise_affine=True)
                  (mlp): CLIPMLP(
                    (activation_fn): QuickGELUActivation()
                    (fc1): Linear(in_features=1024, out_features=4096, bias=True)
                    (fc2): Linear(in_features=4096, out_features=1024, bias=True)
                  )
                  (layer_norm2): LayerNorm((1024,), eps=1e-05, elementwise_affine=True)
                )
              )
            )
            (post_layernorm): LayerNorm((1024,), eps=1e-05, elementwise_affine=True)
          )
        )
      )
      (1): DINOVisionTower(
        (vision_tower): Dinov2Model(
          (embeddings): Dinov2Embeddings(
            (patch_embeddings): Dinov2PatchEmbeddings(
              (projection): Conv2d(3, 1024, kernel_size=(14, 14), stride=(14, 14))
            )
            (dropout): Dropout(p=0.0, inplace=False)
          )
          (encoder): Dinov2Encoder(
            (layer): ModuleList(
              (0-23): 24 x Dinov2Layer(
                (norm1): LayerNorm((1024,), eps=1e-06, elementwise_affine=True)
                (attention): Dinov2Attention(
                  (attention): Dinov2SelfAttention(
                    (query): Linear(in_features=1024, out_features=1024, bias=True)
                    (key): Linear(in_features=1024, out_features=1024, bias=True)
                    (value): Linear(in_features=1024, out_features=1024, bias=True)
                    (dropout): Dropout(p=0.0, inplace=False)
                  )
                  (output): Dinov2SelfOutput(
                    (dense): Linear(in_features=1024, out_features=1024, bias=True)
                    (dropout): Dropout(p=0.0, inplace=False)
                  )
                )
                (layer_scale1): Dinov2LayerScale()
                (drop_path1): Identity()
                (norm2): LayerNorm((1024,), eps=1e-06, elementwise_affine=True)
                (mlp): Dinov2MLP(
                  (fc1): Linear(in_features=1024, out_features=4096, bias=True)
                  (activation): GELUActivation()
                  (fc2): Linear(in_features=4096, out_features=1024, bias=True)
                )
                (layer_scale2): Dinov2LayerScale()
                (drop_path2): Identity()
              )
            )
          )
          (layernorm): LayerNorm((1024,), eps=1e-06, elementwise_affine=True)
        )
      )
    )
    (resampler): Resampler(
      (kv_proj): Identity()
      (attn): MultiheadAttention(
        (out_proj): NonDynamicallyQuantizableLinear(in_features=1024, out_features=1024, bias=True)
      )
      (ln_q): LayerNorm((1024,), eps=1e-06, elementwise_affine=True)
      (ln_kv): LayerNorm((1024,), eps=1e-06, elementwise_affine=True)
      (ln_post): LayerNorm((1024,), eps=1e-06, elementwise_affine=True)
    )
    (mm_projector): Sequential(
      (0): Linear(in_features=1024, out_features=4096, bias=True)
      (1): GELU(approximate='none')
      (2): Linear(in_features=4096, out_features=4096, bias=True)
    )
  )
  (lm_head): Linear(in_features=4096, out_features=32000, bias=False)
)
trainable=26822656
frozen=589824
/home/akane38/LLaVA/transformers/src/transformers/deepspeed.py:23: FutureWarning: transformers.deepspeed module is deprecated and will be removed in a future version. Please import deepspeed modules directly from transformers.integrations
  warnings.warn(
Formatting inputs...Skip in lazy mode
/home/akane38/LLaVA/transformers/src/transformers/deepspeed.py:23: FutureWarning: transformers.deepspeed module is deprecated and will be removed in a future version. Please import deepspeed modules directly from transformers.integrations
…
