…
  return self.fget.__get__(instance, owner)()
Loading checkpoint shards:  50%|█████     | 1/2 [00:04<00:04,  4.55s/it]Loading checkpoint shards: 100%|██████████| 2/2 [00:06<00:00,  2.83s/it]Loading checkpoint shards: 100%|██████████| 2/2 [00:06<00:00,  3.09s/it]
[2024-04-06 14:59:25,818] [INFO] [partition_parameters.py:348:__exit__] finished initializing model - num_params = 682, num_elems = 7.04B
[2024-04-06 14:59:28,373] [INFO] [partition_parameters.py:348:__exit__] finished initializing model - num_params = 1121, num_elems = 7.35B
MultiVELlavaLlamaForCausalLM(
  (model): MultiVELlavaLlamaModel(
    (embed_tokens): Embedding(32000, 4096, padding_idx=0)
    (layers): ModuleList(
      (0-31): 32 x LlamaDecoderLayer(
        (self_attn): LlamaFlashAttention2(
          (q_proj): Linear(in_features=4096, out_features=4096, bias=False)
          (k_proj): Linear(in_features=4096, out_features=4096, bias=False)
          (v_proj): Linear(in_features=4096, out_features=4096, bias=False)
          (o_proj): Linear(in_features=4096, out_features=4096, bias=False)
          (rotary_emb): LlamaRotaryEmbedding()
        )
        (mlp): LlamaMLP(
          (gate_proj): Linear(in_features=4096, out_features=11008, bias=False)
          (up_proj): Linear(in_features=4096, out_features=11008, bias=False)
          (down_proj): Linear(in_features=11008, out_features=4096, bias=False)
          (act_fn): SiLU()
        )
        (input_layernorm): LlamaRMSNorm()
        (post_attention_layernorm): LlamaRMSNorm()
      )
    )
    (norm): LlamaRMSNorm()
    (multiple_vision_towers): ModuleList(
      (0): CLIPVisionTower(
        (vision_tower): CLIPVisionModel(
          (vision_model): CLIPVisionTransformer(
            (embeddings): CLIPVisionEmbeddings(
              (patch_embedding): Conv2d(3, 1024, kernel_size=(14, 14), stride=(14, 14), bias=False)
              (position_embedding): Embedding(577, 1024)
            )
            (pre_layrnorm): LayerNorm((1024,), eps=1e-05, elementwise_affine=True)
            (encoder): CLIPEncoder(
              (layers): ModuleList(
                (0-23): 24 x CLIPEncoderLayer(
                  (self_attn): CLIPAttention(
                    (k_proj): Linear(in_features=1024, out_features=1024, bias=True)
                    (v_proj): Linear(in_features=1024, out_features=1024, bias=True)
                    (q_proj): Linear(in_features=1024, out_features=1024, bias=True)
                    (out_proj): Linear(in_features=1024, out_features=1024, bias=True)
                  )
                  (layer_norm1): LayerNorm((1024,), eps=1e-05, elementwise_affine=True)
                  (mlp): CLIPMLP(
                    (activation_fn): QuickGELUActivation()
                    (fc1): Linear(in_features=1024, out_features=4096, bias=True)
                    (fc2): Linear(in_features=4096, out_features=1024, bias=True)
                  )
                  (layer_norm2): LayerNorm((1024,), eps=1e-05, elementwise_affine=True)
                )
              )
            )
            (post_layernorm): LayerNorm((1024,), eps=1e-05, elementwise_affine=True)
          )
        )
      )
      (1): DINOVisionTower(
        (vision_tower): Dinov2Model(
          (embeddings): Dinov2Embeddings(
            (patch_embeddings): Dinov2PatchEmbeddings(
              (projection): Conv2d(3, 1024, kernel_size=(14, 14), stride=(14, 14))
            )
            (dropout): Dropout(p=0.0, inplace=False)
          )
          (encoder): Dinov2Encoder(
            (layer): ModuleList(
              (0-23): 24 x Dinov2Layer(
                (norm1): LayerNorm((1024,), eps=1e-06, elementwise_affine=True)
                (attention): Dinov2Attention(
                  (attention): Dinov2SelfAttention(
                    (query): Linear(in_features=1024, out_features=1024, bias=True)
                    (key): Linear(in_features=1024, out_features=1024, bias=True)
                    (value): Linear(in_features=1024, out_features=1024, bias=True)
                    (dropout): Dropout(p=0.0, inplace=False)
                  )
                  (output): Dinov2SelfOutput(
                    (dense): Linear(in_features=1024, out_features=1024, bias=True)
                    (dropout): Dropout(p=0.0, inplace=False)
                  )
                )
                (layer_scale1): Dinov2LayerScale()
                (drop_path1): Identity()
                (norm2): LayerNorm((1024,), eps=1e-06, elementwise_affine=True)
                (mlp): Dinov2MLP(
                  (fc1): Linear(in_features=1024, out_features=4096, bias=True)
                  (activation): GELUActivation()
                  (fc2): Linear(in_features=4096, out_features=1024, bias=True)
                )
                (layer_scale2): Dinov2LayerScale()
                (drop_path2): Identity()
              )
            )
          )
          (layernorm): LayerNorm((1024,), eps=1e-06, elementwise_affine=True)
        )
      )
    )
    (resampler): Resampler(
      (kv_proj): Identity()
      (attn): MultiheadAttention(
        (out_proj): NonDynamicallyQuantizableLinear(in_features=1024, out_features=1024, bias=True)
      )
      (ln_q): LayerNorm((1024,), eps=1e-06, elementwise_affine=True)
      (ln_kv): LayerNorm((1024,), eps=1e-06, elementwise_affine=True)
      (ln_post): LayerNorm((1024,), eps=1e-06, elementwise_affine=True)
    )
    (mm_projector): Sequential(
      (0): Linear(in_features=1024, out_features=4096, bias=True)
      (1): GELU(approximate='none')
      (2): Linear(in_features=4096, out_features=4096, bias=True)
    )
  )
  (lm_head): Linear(in_features=4096, out_features=32000, bias=False)
)
trainable=26822656
frozen=589824
Formatting inputs...Skip in lazy mode
/home/akane38/LLaVA/transformers/src/transformers/deepspeed.py:23: FutureWarning: transformers.deepspeed module is deprecated and will be removed in a future version. Please import deepspeed modules directly from transformers.integrations
  warnings.warn(
Parameter Offload: Total persistent parameters: 983040 in 613 params
…
