…
/home/akane38/.cache/torch/hub/facebookresearch_dinov2_main/dinov2/layers/block.py:40: UserWarning: xFormers is not available (Block)
  warnings.warn("xFormers is not available (Block)")
projector_type='mlp2x_gelu'
projector_type='mlp2x_gelu'
projector_type='mlp2x_gelu'
projector_type='mlp2x_gelu'
projector_type='mlp2x_gelu'
projector_type='mlp2x_gelu'
projector_type='mlp2x_gelu'
projector_type='mlp2x_gelu'
Router param is trainable: True
Vision adapters param is trainable: True
Projector param is trainable: True
LLM param is trainable: False
MultiVELlavaLlamaForCausalLM(
  (model): MultiVELlavaLlamaModel(
    (embed_tokens): Embedding(32000, 4096, padding_idx=0)
    (layers): ModuleList(
      (0-31): 32 x LlamaDecoderLayer(
        (self_attn): LlamaFlashAttention2(
          (q_proj): Linear(in_features=4096, out_features=4096, bias=False)
          (k_proj): Linear(in_features=4096, out_features=4096, bias=False)
          (v_proj): Linear(in_features=4096, out_features=4096, bias=False)
          (o_proj): Linear(in_features=4096, out_features=4096, bias=False)
          (rotary_emb): LlamaRotaryEmbedding()
        )
        (mlp): LlamaMLP(
          (gate_proj): Linear(in_features=4096, out_features=11008, bias=False)
          (up_proj): Linear(in_features=4096, out_features=11008, bias=False)
          (down_proj): Linear(in_features=11008, out_features=4096, bias=False)
          (act_fn): SiLU()
        )
        (input_layernorm): LlamaRMSNorm()
        (post_attention_layernorm): LlamaRMSNorm()
      )
    )
    (norm): LlamaRMSNorm()
    (multiple_vision_towers): ModuleList(
      (0): CLIPVisionTower(
        (vision_tower): CLIPVisionModel(
          (vision_model): CLIPVisionTransformer(
            (embeddings): CLIPVisionEmbeddings(
              (patch_embedding): Conv2d(3, 1024, kernel_size=(14, 14), stride=(14, 14), bias=False)
              (position_embedding): Embedding(577, 1024)
            )
            (pre_layrnorm): LayerNorm((1024,), eps=1e-05, elementwise_affine=True)
            (encoder): CLIPEncoder(
              (layers): ModuleList(
                (0-23): 24 x CLIPEncoderLayer(
                  (self_attn): CLIPAttention(
                    (k_proj): Linear(in_features=1024, out_features=1024, bias=True)
                    (v_proj): Linear(in_features=1024, out_features=1024, bias=True)
                    (q_proj): Linear(in_features=1024, out_features=1024, bias=True)
                    (out_proj): Linear(in_features=1024, out_features=1024, bias=True)
                  )
                  (layer_norm1): LayerNorm((1024,), eps=1e-05, elementwise_affine=True)
                  (mlp): CLIPMLP(
                    (activation_fn): QuickGELUActivation()
                    (fc1): Linear(in_features=1024, out_features=4096, bias=True)
                    (fc2): Linear(in_features=4096, out_features=1024, bias=True)
                  )
                  (layer_norm2): LayerNorm((1024,), eps=1e-05, elementwise_affine=True)
                )
              )
            )
            (post_layernorm): LayerNorm((1024,), eps=1e-05, elementwise_affine=True)
          )
        )
      )
      (1): DINOVisionTower(
        (dummy_vision_tower): Dinov2Model(
          (embeddings): Dinov2Embeddings(
            (patch_embeddings): Dinov2PatchEmbeddings(
              (projection): Conv2d(3, 1024, kernel_size=(14, 14), stride=(14, 14))
            )
            (dropout): Dropout(p=0.0, inplace=False)
          )
          (encoder): Dinov2Encoder(
            (layer): ModuleList(
              (0-23): 24 x Dinov2Layer(
                (norm1): LayerNorm((1024,), eps=1e-06, elementwise_affine=True)
                (attention): Dinov2Attention(
                  (attention): Dinov2SelfAttention(
                    (query): Linear(in_features=1024, out_features=1024, bias=True)
                    (key): Linear(in_features=1024, out_features=1024, bias=True)
                    (value): Linear(in_features=1024, out_features=1024, bias=True)
                    (dropout): Dropout(p=0.0, inplace=False)
                  )
                  (output): Dinov2SelfOutput(
                    (dense): Linear(in_features=1024, out_features=1024, bias=True)
                    (dropout): Dropout(p=0.0, inplace=False)
                  )
                )
                (layer_scale1): Dinov2LayerScale()
                (drop_path1): Identity()
                (norm2): LayerNorm((1024,), eps=1e-06, elementwise_affine=True)
                (mlp): Dinov2MLP(
                  (fc1): Linear(in_features=1024, out_features=4096, bias=True)
                  (activation): GELUActivation()
                  (fc2): Linear(in_features=4096, out_features=1024, bias=True)
                )
                (layer_scale2): Dinov2LayerScale()
                (drop_path2): Identity()
              )
            )
          )
          (layernorm): LayerNorm((1024,), eps=1e-06, elementwise_affine=True)
        )
        (vision_tower): DinoVisionTransformer(
          (patch_embed): PatchEmbed(
            (proj): Conv2d(3, 1024, kernel_size=(14, 14), stride=(14, 14))
            (norm): Identity()
          )
          (blocks): ModuleList(
            (0-23): 24 x NestedTensorBlock(
              (norm1): LayerNorm((1024,), eps=1e-06, elementwise_affine=True)
              (attn): MemEffAttention(
                (qkv): Linear(in_features=1024, out_features=3072, bias=True)
                (attn_drop): Dropout(p=0.0, inplace=False)
                (proj): Linear(in_features=1024, out_features=1024, bias=True)
                (proj_drop): Dropout(p=0.0, inplace=False)
              )
              (ls1): LayerScale()
              (drop_path1): Identity()
              (norm2): LayerNorm((1024,), eps=1e-06, elementwise_affine=True)
              (mlp): Mlp(
                (fc1): Linear(in_features=1024, out_features=4096, bias=True)
                (act): GELU(approximate='none')
                (fc2): Linear(in_features=4096, out_features=1024, bias=True)
                (drop): Dropout(p=0.0, inplace=False)
              )
              (ls2): LayerScale()
              (drop_path2): Identity()
            )
          )
          (norm): LayerNorm((1024,), eps=1e-06, elementwise_affine=True)
          (head): Identity()
        )
      )
    )
    (mm_projector): Sequential(
      (0): Linear(in_features=4096, out_features=4096, bias=True)
      (1): GELU(approximate='none')
      (2): Linear(in_features=4096, out_features=4096, bias=True)
    )
    (multiple_vision_adapters): ModuleList(
      (0-1): 2 x Sequential(
        (0): Linear(in_features=1024, out_features=4096, bias=True)
        (1): GELU(approximate='none')
        (2): Linear(in_features=4096, out_features=4096, bias=True)
      )
    )
    (router): Linear(in_features=4096, out_features=1, bias=True)
  )
  (lm_head): Linear(in_features=4096, out_features=32000, bias=False)
)
trainable=75526145
frozen=7650660352
Formatting inputs...Skip in lazy mode
wandb: Currently logged in as: compyle. Use `wandb login --relogin` to force relogin
wandb: wandb version 0.16.6 is available!  To upgrade, please run:
wandb:  $ pip install wandb --upgrade
wandb: Tracking run with wandb version 0.16.3
wandb: Run data is saved locally in /home/akane38/LLaVA/wandb/run-20240417_173706-bq058rut
…
