…
Resampler param: torch.Size([576, 1024]), 589824
Resampler param: torch.Size([1024, 1024]), 1048576
Resampler param: torch.Size([3072, 1024]), 3145728
Resampler param: torch.Size([3072]), 3072
Resampler param: torch.Size([1024, 1024]), 1048576
Resampler param: torch.Size([1024]), 1024
Resampler param: torch.Size([1024]), 1024
Resampler param: torch.Size([1024]), 1024
Resampler param: torch.Size([1024]), 1024
Resampler param: torch.Size([1024]), 1024
Resampler param: torch.Size([1024]), 1024
Resampler param: torch.Size([1024]), 1024
MultiVELlavaLlamaForCausalLM(
  (model): MultiVELlavaLlamaModel(
    (embed_tokens): Embedding(32000, 4096, padding_idx=0)
    (layers): ModuleList(
      (0-31): 32 x LlamaDecoderLayer(
        (self_attn): LlamaFlashAttention2(
          (q_proj): Linear(in_features=4096, out_features=4096, bias=False)
          (k_proj): Linear(in_features=4096, out_features=4096, bias=False)
          (v_proj): Linear(in_features=4096, out_features=4096, bias=False)
          (o_proj): Linear(in_features=4096, out_features=4096, bias=False)
          (rotary_emb): LlamaRotaryEmbedding()
        )
        (mlp): LlamaMLP(
          (gate_proj): Linear(in_features=4096, out_features=11008, bias=False)
          (up_proj): Linear(in_features=4096, out_features=11008, bias=False)
          (down_proj): Linear(in_features=11008, out_features=4096, bias=False)
          (act_fn): SiLU()
        )
        (input_layernorm): LlamaRMSNorm()
        (post_attention_layernorm): LlamaRMSNorm()
      )
    )
    (norm): LlamaRMSNorm()
    (multiple_vision_towers): ModuleList(
      (0): CLIPVisionTower(
        (vision_tower): CLIPVisionModel(
          (vision_model): CLIPVisionTransformer(
            (embeddings): CLIPVisionEmbeddings(
              (patch_embedding): Conv2d(3, 1024, kernel_size=(14, 14), stride=(14, 14), bias=False)
              (position_embedding): Embedding(577, 1024)
            )
            (pre_layrnorm): LayerNorm((1024,), eps=1e-05, elementwise_affine=True)
            (encoder): CLIPEncoder(
              (layers): ModuleList(
                (0-23): 24 x CLIPEncoderLayer(
                  (self_attn): CLIPAttention(
                    (k_proj): Linear(in_features=1024, out_features=1024, bias=True)
                    (v_proj): Linear(in_features=1024, out_features=1024, bias=True)
                    (q_proj): Linear(in_features=1024, out_features=1024, bias=True)
                    (out_proj): Linear(in_features=1024, out_features=1024, bias=True)
                  )
                  (layer_norm1): LayerNorm((1024,), eps=1e-05, elementwise_affine=True)
                  (mlp): CLIPMLP(
                    (activation_fn): QuickGELUActivation()
                    (fc1): Linear(in_features=1024, out_features=4096, bias=True)
                    (fc2): Linear(in_features=4096, out_features=1024, bias=True)
                  )
                  (layer_norm2): LayerNorm((1024,), eps=1e-05, elementwise_affine=True)
                )
              )
            )
            (post_layernorm): LayerNorm((1024,), eps=1e-05, elementwise_affine=True)
          )
        )
      )
      (1): DINOVisionTower(
        (vision_tower): Dinov2Model(
          (embeddings): Dinov2Embeddings(
            (patch_embeddings): Dinov2PatchEmbeddings(
              (projection): Conv2d(3, 1024, kernel_size=(14, 14), stride=(14, 14))
            )
            (dropout): Dropout(p=0.0, inplace=False)
          )
          (encoder): Dinov2Encoder(
            (layer): ModuleList(
              (0-23): 24 x Dinov2Layer(
                (norm1): LayerNorm((1024,), eps=1e-06, elementwise_affine=True)
                (attention): Dinov2Attention(
                  (attention): Dinov2SelfAttention(
                    (query): Linear(in_features=1024, out_features=1024, bias=True)
                    (key): Linear(in_features=1024, out_features=1024, bias=True)
                    (value): Linear(in_features=1024, out_features=1024, bias=True)
                    (dropout): Dropout(p=0.0, inplace=False)
                  )
                  (output): Dinov2SelfOutput(
                    (dense): Linear(in_features=1024, out_features=1024, bias=True)
                    (dropout): Dropout(p=0.0, inplace=False)
                  )
                )
                (layer_scale1): Dinov2LayerScale()
                (drop_path1): Identity()
                (norm2): LayerNorm((1024,), eps=1e-06, elementwise_affine=True)
                (mlp): Dinov2MLP(
                  (fc1): Linear(in_features=1024, out_features=4096, bias=True)
                  (activation): GELUActivation()
                  (fc2): Linear(in_features=4096, out_features=1024, bias=True)
                )
                (layer_scale2): Dinov2LayerScale()
                (drop_path2): Identity()
              )
            )
          )
          (layernorm): LayerNorm((1024,), eps=1e-06, elementwise_affine=True)
        )
      )
    )
    (resampler): Resampler(
      (kv_proj): Identity()
      (attn): MultiheadAttention(
        (out_proj): NonDynamicallyQuantizableLinear(in_features=1024, out_features=1024, bias=True)
      )
      (ln_q): LayerNorm((1024,), eps=1e-06, elementwise_affine=True)
      (ln_kv): LayerNorm((1024,), eps=1e-06, elementwise_affine=True)
      (ln_post): LayerNorm((1024,), eps=1e-06, elementwise_affine=True)
    )
    (mm_projector): Sequential(
      (0): Linear(in_features=1024, out_features=4096, bias=True)
      (1): GELU(approximate='none')
      (2): Linear(in_features=4096, out_features=4096, bias=True)
    )
  )
  (lm_head): Linear(in_features=4096, out_features=32000, bias=False)
)
trainable=27412480
frozen=7346291712
Formatting inputs...Skip in lazy mode
wandb: Currently logged in as: compyle. Use `wandb login --relogin` to force relogin
wandb: wandb version 0.16.6 is available!  To upgrade, please run:
wandb:  $ pip install wandb --upgrade
wandb: Tracking run with wandb version 0.16.3
wandb: Run data is saved locally in /home/akane38/LLaVA/wandb/run-20240406_142457-l60fm9me
…
