…
Loading checkpoint shards: 100%|â–ˆâ–ˆâ–ˆâ–ˆâ–ˆâ–ˆâ–ˆâ–ˆâ–ˆâ–ˆ| 2/2 [00:04<00:00,  2.21s/it]
Some weights of LlavaLlamaForCausalLM were not initialized from the model checkpoint at liuhaotian/llava-v1.5-7b and are newly initialized: ['model.granular_mm_projector.0.bias', 'model.granular_mm_projector.0.weight', 'model.granular_mm_projector.2.bias', 'model.granular_mm_projector.2.weight']
You should probably TRAIN this model on a down-stream task to be able to use it for predictions and inference.
loaded model
CLIPVisionTower(
  (vision_tower): CLIPVisionModel(
    (vision_model): CLIPVisionTransformer(
      (embeddings): CLIPVisionEmbeddings(
        (patch_embedding): Conv2d(3, 1024, kernel_size=(14, 14), stride=(14, 14), bias=False)
        (position_embedding): Embedding(577, 1024)
      )
      (pre_layrnorm): LayerNorm((1024,), eps=1e-05, elementwise_affine=True)
      (encoder): CLIPEncoder(
        (layers): ModuleList(
          (0-23): 24 x CLIPEncoderLayer(
            (self_attn): CLIPAttention(
              (k_proj): Linear(in_features=1024, out_features=1024, bias=True)
              (v_proj): Linear(in_features=1024, out_features=1024, bias=True)
              (q_proj): Linear(in_features=1024, out_features=1024, bias=True)
              (out_proj): Linear(in_features=1024, out_features=1024, bias=True)
            )
            (layer_norm1): LayerNorm((1024,), eps=1e-05, elementwise_affine=True)
            (mlp): CLIPMLP(
              (activation_fn): QuickGELUActivation()
              (fc1): Linear(in_features=1024, out_features=4096, bias=True)
              (fc2): Linear(in_features=4096, out_features=1024, bias=True)
            )
            (layer_norm2): LayerNorm((1024,), eps=1e-05, elementwise_affine=True)
          )
        )
      )
      (post_layernorm): LayerNorm((1024,), eps=1e-05, elementwise_affine=True)
    )
  )
)
Traceback (most recent call last):
  File "/home/akane38/LLaVA/llava/eval/run_llava.py", line 159, in <module>
    eval_model(args)
  File "/home/akane38/LLaVA/llava/eval/run_llava.py", line 129, in eval_model
    output_ids = model.generate(
  File "/home/akane38/miniconda3/envs/llava/lib/python3.10/site-packages/torch/utils/_contextlib.py", line 115, in decorate_context
…
